checkpoint.pth (torch_old, 37499 bytes, 6 tensors)

fc1.weight f4 [128, 37]
000000 2b 0b 56 be 76 3f ba 3e d3 59 78 3e 41 3d 2a be
       -0.20902698 0.36376542 0.24253015 -0.16624929
000010 7c 10 1b bf e2 ba 53 3d e9 b2 04 bf 1b 5e bc 3d
       -0.6057203 0.051691897 -0.51835495 0.09197637
000020 e1 a8 92 3e fb e7 ff be 38 f3 86 3d 99 96 2b bf
       0.2864447 -0.49981675 0.06589359 -0.6702667
000030 e5 ae 86 be 19 6c 0a bd e0 54 97 be 4f d0 80 3e
       -0.2630531 -0.033794496 -0.29556942 0.25158927
000040 ae ae 65 3e fc 9e 09 bf 62 00 7b bf 10 8d bb be
       0.22429916 -0.53758216 -0.9804746 -0.3663106
000050 99 a3 58 3e d9 e8 bd be 0a ca 77 3e 04 f3 28 bf
       0.21156158 -0.3709171 0.24198166 -0.6599581
000060 6a 54 92 3d 00 ee 39 3d 94 29 e8 3e e1 d2 20 be
       0.07145007 0.04539299 0.45344222 -0.15705444
000070 01 5c 19 be 3a c6 d2 bd 13 80 24 bf b5 38 80 be
       -0.14976503 -0.10291715 -0.64257926 -0.25043264
000080 08 38 91 3e e4 78 a2 be 40 40 87 3e 25 c1 93 3d
       0.2836306 -0.31732857 0.26416206 0.07214574
000090 97 5d 3c 3c 35 bb f8 be 42 88 1d 3e f9 38 1a bc
       0.011496923 -0.48580328 0.1538401 -0.009412997
0000a0 37 60 a7 be 5d 00 88 be ff bd 57 bf fc 7a 8e 3d
       -0.32690594 -0.26562777 -0.84274286 0.06957051
0000b0 26 37 4a bd ca ab 89 bf 1c b8 ff 3d c5 73 92 3d
       -0.049369 -1.0755551 0.12486288 0.071509875
0000c0 f7 37 f8 be d3 ff 64 be 9d 30 a7 bf 89 ca 22 bf
       -0.48480198 -0.22363214 -1.3061711 -0.63590294
0000d0 28 07 4b bf d6 97 57 be 82 a3 a8 3e ec 01 17 3e
       -0.79307795 -0.21054015 0.32937247 0.14746827
0000e0 45 dd 5e be fa 20 9c be dc 49 89 bf bb 8d df 3d
       -0.21764095 -0.3049391 -1.0725665 0.10915705
0000f0 70 f0 15 bf e2 d9 a5 3e 63 6d 39 be a4 40 84 3e
       -0.58570004 0.32392794 -0.18108134 0.25830567
000100 55 66 43 bf 89 24 1f bf 56 4f f2 3c 82 d5 1f be
       -0.7632802 -0.62165123 0.029578846 -0.1560879
000110 fb eb 85 be 91 c6 41 bf 86 22 95 3e d8 8f 4f be
       -0.261566 -0.75693613 0.29127902 -0.20269716
000120 d1 c0 5d be 08 c4 ab 3b cc 98 c1 bd c0 5f 9f be
       -0.21655585 0.0052418746 -0.09452972 -0.3112774
000130 3c aa 89 3b dc dc 2f be e0 d9 89 bd 0c 2b 79 bf
       0.0042012017 -0.17174095 -0.067310095 -0.9733131
000140 ff 38 c6 3d 67 0f 11 bd 09 ca 86 3e 05 d8 c2 bd
       0.0967884 -0.03541508 0.26326016 -0.09513859
000150 07 ec 7a 3e 0c 50 93 bf 02 cc 3d bf 71 ad 74 bf
       0.245041 -1.1508803 -0.74139416 -0.9557715
000160 2f 1b 1b bf 74 3d 22 be be 52 ed 3e 75 73 63 bf
       -0.60588354 -0.15843755 0.4635219 -0.8884805
000170 25 bc 88 bf e4 33 53 3d 8d 1f f6 be d0 b1 4e bf
       -1.0682417 0.05156316 -0.48070946 -0.8074007
000180 eb fb 9c be 7c 55 bf 3e 99 6c cb be c1 7a 21 bf
       -0.30660948 0.37369907 -0.3973129 -0.6307793
000190 14 67 be bd 49 e8 33 bf 04 07 c5 3e 55 96 5a be
       -0.09297004 -0.70276314 0.38481915 -0.2134641
0001a0 8a 6d 2d bf d3 bc 04 bf 3a f6 51 3b cf 50 ab be
       -0.6774527 -0.5185062 0.0032037632 -0.3346009
0001b0 78 65 84 be f8 07 48 be 10 78 3d b8 dc 06 97 be
       -0.25858665 -0.1953429 -4.517293e-05 -0.2949742
0001c0 b0 41 b4 3e be 98 59 bf 13 06 38 bf 39 09 25 be
       0.35206366 -0.8499869 -0.7188427 -0.161168
0001d0 dd ba 9e bc 69 b1 33 bf f2 65 6f 3d 6a 0a 33 bf
       -0.019376213 -0.7019258 0.058446832 -0.69937766
0001e0 46 63 73 3d d5 12 53 3e d5 c9 8c be 00 2c f6 bd
       0.059420846 0.20612653 -0.27497736 -0.12020111
0001f0 32 56 39 3e f6 74 1b bf f2 1d 5f 3e 7d 15 70 be
       0.18099287 -0.60725343 0.21788767 -0.23445697
000200 0c 04 e0 3c 56 fd 97 be 48 a7 92 bd d4 47 a1 3d
       0.02734568 -0.29685467 -0.071608126 0.07875028
000210 9d 78 6d bc 9b ea d6 be e1 34 55 3e 93 e1 06 3f
       -0.0144940885 -0.41975865 0.20820953 0.5268795
000220 25 d1 32 be 9f 2e a5 3e 20 1a 24 bf 47 22 17 3e
       -0.17462595 0.32262132 -0.64102364 0.1475917
000230 a7 50 69 be ea 6a ce 3c fe 20 22 bf 13 38 51 bf
       -0.22784673 0.025197465 -0.6333159 -0.8172619
000240 9a 54 b9 3e 3e a7 57 3b d0 a0 14 be 89 40 16 bc
       0.36197358 0.003290608 -0.1451447 -0.00917066
000250 26 f5 64 bd 62 46 01 3d 5d 9e 03 bf 48 f7 fd 3c
       -0.055897854 0.031561263 -0.5141352 0.031001702
000260 ec 33 0a 3f 27 ba 95 be cb a1 e1 be 24 ee 23 3e
       0.53985476 -0.29243585 -0.4406875 0.16008812
000270 e7 ef 9b be bd 91 e8 bf 2a 0a 50 bf 27 94 3c be
       -0.30456468 -1.8169476 -0.8126551 -0.1841589
000280 f0 6b 63 3e 10 49 51 bf 06 29 8a bf 7c 02 36 bf
       0.22209144 -0.8175211 -1.0793769 -0.7109754
000290 5f db 0b 3d b1 8c 0c 3d 89 dc 27 3e b3 74 88 3e
       0.034144755 0.03431386 0.16392721 0.26651534
0002a0 fb 2b 00 bf ce 77 12 be 34 d4 41 3e 96 43 61 bf
       -0.5006711 -0.14303514 0.18928605 -0.8799375
0002b0 45 7c 0e c0 63 71 69 3d 3d fe 65 3e 7e db b7 bd
       -2.2263348 0.0569929 0.22460265 -0.08977412
0002c0 f2 4c 9a be 38 ed 2a bf 28 00 51 bd 8d d1 cd be
       -0.3013683 -0.6676822 -0.05102554 -0.40198937
0002d0 95 3b 8a 3e a2 85 15 bf f7 ad 39 c0 31 ca b9 be
       0.26998582 -0.5840703 -2.901243 -0.36287072
0002e0 61 1e 02 bd a8 51 32 3e 55 2c 35 bd 7a 63 dc be
       -0.031767253 0.17413962 -0.04423173 -0.43044645
0002f0 24 bd a4 be c0 03 84 3e 36 07 08 be 28 1b 73 3e
       -0.32175553 0.2578411 -0.13284001 0.23740828
000300 bc 72 08 bf 52 c1 5f bd 49 60 ad be ba 44 c5 3d
       -0.5330007 -0.054627724 -0.33862522 0.09632249
000310 18 52 3f bf 5d 14 e4 be 5d 0a 3d 3d e6 c2 9f bf
       -0.7473464 -0.44546786 0.04615246 -1.2481353
000320 a1 c7 eb be 2e 62 11 bf bf 57 84 3e 03 79 2f 3e
       -0.46050742 -0.56790435 0.25848195 0.17136006
000330 61 be 32 3e 37 45 b3 3e 9b 91 b0 be af d2 3a be
       0.17455436 0.35013744 -0.34486088 -0.18244432
000340 12 31 b4 be ee cc eb bf cc 88 05 bf c3 52 61 3e
       -0.35193688 -1.8421915 -0.5216186 0.22004227
000350 5f 9d 8e be 17 87 6b be ed 5f 82 be 3d 95 53 be
       -0.2785444 -0.23000751 -0.2546381 -0.20662399
000360 58 d8 3f be 0e f1 20 be 54 5c 49 bd 7f 0c 01 bf
       -0.18734872 -0.15716955 -0.049160317 -0.5040969
000370 cf 20 c0 be bd a2 22 bd 27 82 28 3e be 2c 1b be
       -0.3752503 -0.03970598 0.16455899 -0.15153787
000380 29 f2 43 be 61 fe 14 be b7 a3 d9 be 42 09 ca bd
       -0.19135346 -0.14550163 -0.42507717 -0.09865047
000390 c8 6a 00 3f 2f a6 75 be d4 9e bc be ef dd 9d bf
       0.50162935 -0.23989175 -0.36839926 -1.2333354
0003a0 1a bc a9 bb b6 7f 87 3e be 4a ff bc e8 9a 17 bf
       -0.005179894 0.26464623 -0.03116357 -0.59220743
0003b0 b3 a8 0d 3e 30 ee 1c bd 25 20 6f 3e 48 3f e2 be
       0.13833885 -0.03831309 0.23352106 -0.44188905
0003c0 02 b5 a1 bd 16 b6 b1 bc aa f2 36 3e 60 30 05 bf
       -0.078958526 -0.02169327 0.17866006 -0.5202694
0003d0 35 2f b4 be 45 8c 4f be 90 a6 ba be ba 36 46 3e
       -0.35192266 -0.20268352 -0.36455202 0.19356814
0003e0 9f cc 00 bf d0 f0 b0 be 77 f4 d2 be 78 b8 93 be
       -0.50312227 -0.34558725 -0.41202137 -0.28851676
0003f0 9f ce 85 bd 25 87 ca bd 95 2f 1e be 7d e6 dc be
       -0.065335505 -0.09889058 -0.15447839 -0.431446

fc1.bias f4 [128]
000000 e4 06 7e 3d ed 47 8f bd 6d 5a a7 bd d5 29 c0 bd
       0.06201829 -0.06996141 -0.08171544 -0.09382979
000010 1f a6 49 bd 28 72 67 be c1 73 aa be 4a 34 45 be
       -0.04923069 -0.22602141 -0.33291438 -0.19258228
000020 6b bb 0e 3e 84 6f 4b be 8f ac a2 bc 40 da 75 be
       0.13938682 -0.19866759 -0.019857673 -0.24009037
000030 87 c1 a8 be c9 60 5a be 14 65 79 be d8 50 96 3d
       -0.3296015 -0.21325983 -0.24354964 0.073396385
000040 44 8e 4a be b9 ea ff bd c2 64 91 bd 8d be 54 be
       -0.19780833 -0.12495942 -0.07099296 -0.20775814
000050 f2 3a c4 be 68 ce 5f be 63 3c cd bd fe e8 65 bb
       -0.38326222 -0.21856081 -0.100212835 -0.00350815
000060 25 70 3c be 65 45 00 be 73 5f aa 3e f9 e7 5e be
       -0.18402155 -0.12526472 0.33275947 -0.21768178
000070 46 0b 6a bd c0 de 08 be 75 10 2b be e6 34 0e bd
       -0.057139657 -0.13366222 -0.16705497 -0.034718417
000080 4a 17 22 bd 62 fd 8f be 32 1e f1 bd 96 36 ae be
       -0.03957299 -0.28123003 -0.117733374 -0.3402602
000090 9e b6 1c 3c 60 2b 68 be 6c fe 1a be c6 e8 51 be
       0.009565024 -0.22672796 -0.15136117 -0.20498952
0000a0 79 75 d6 bd 58 25 5a bd fb 35 80 be 21 0d 50 bd
       -0.10471625 -0.05325827 -0.25041184 -0.05079377
0000b0 4f 16 95 be 99 28 00 be 0c c5 9f be 08 a1 f1 bd
       -0.29118583 -0.12515487 -0.31205022 -0.117982924
0000c0 79 d1 71 bd 86 d1 7f be 74 f5 81 be 41 d0 c6 bd
       -0.05903766 -0.2498227 -0.25382578 -0.0970769
0000d0 08 e1 c0 bc e7 22 87 bd 92 60 1e be 76 d1 80 bd
       -0.023544803 -0.06598454 -0.15466526 -0.062899515
0000e0 87 34 26 be 44 19 be 3d 59 16 40 be 7c 25 54 be
       -0.16230975 0.09282163 -0.18758525 -0.20717424
0000f0 29 4e 38 bd 8e 94 34 bd 1c 07 20 bd 69 4f 50 be
       -0.044996414 -0.044086985 -0.03906928 -0.20342793
000100 73 74 47 be 4d 68 7c be d6 53 9c bd c7 f5 81 3b
       -0.19478016 -0.24649163 -0.07633178 0.0039660665
000110 0f e4 2b be 47 06 cf bc 50 99 a0 be 4a 5d 19 bd
       -0.16786216 -0.025271548 -0.31366968 -0.037442483
000120 69 d6 c0 bd ce 96 61 3c 77 41 6f 3e cf 2b 6c be
       -0.094158955 0.013768865 0.23364817 -0.23063587
000130 95 c5 50 be 2c 38 63 be 8e 4c 07 bd 6b 0a d5 bc
       -0.20387872 -0.22189397 -0.033031993 -0.026005944
000140 1b 5a 88 be 9c b9 8a be 90 79 66 be 79 9a 4b be
       -0.26631245 -0.27094734 -0.2250731 -0.19883145
000150 df e2 02 be 07 05 35 be f3 09 27 bc 10 22 6f be
       -0.12781857 -0.17677699 -0.010195243 -0.23352838
000160 85 82 f9 bd 4f 7b 18 be 34 bd ac 3d 7a 36 3a be
       -0.12183098 -0.14890788 0.08434525 -0.18184844
000170 6e 70 52 be d5 bd 07 3e b5 40 6e be 78 90 a6 be
       -0.20550701 0.13256009 -0.23266871 -0.32532096
000180 db e9 7e 3d 81 71 d5 bb d7 17 5d be 19 96 48 be
       0.06223474 -0.006513775 -0.21591125 -0.19588508
000190 d0 7b 08 3e 61 7d 44 be a8 71 8e bd 33 e5 72 be
       0.1332848 -0.19188453 -0.06955272 -0.23720245
0001a0 0c f5 4a bc ac 54 bc bd 63 39 13 be ba d8 9c bd
       -0.012387525 -0.091958374 -0.1437736 -0.07658525
0001b0 9e a1 63 be 9e 54 c5 3d e8 8e 1c 3e e6 e5 15 3e
       -0.22229621 0.0963528 0.1528889 0.1463848
0001c0 77 7d 80 3e dd 4d 1f 3d cc 2f 91 be 11 a0 0d 3e
       0.25095722 0.038892616 -0.2835678 0.13830592
0001d0 3a 18 a0 bd 25 09 1d 3e 57 03 55 bc b8 53 0e be
       -0.07817121 0.1533552 -0.013001285 -0.13899124
0001e0 2a d6 93 be 3b 2f 37 3e 4a f7 c5 be 1d 04 47 be
       -0.28874332 0.1788911 -0.3866523 -0.19435163
0001f0 af 22 c8 bd 5d 5b f1 bd 93 f6 89 be df 6e 95 3d
       -0.0977224 -0.11785004 -0.26945934 0.072965376

fc2.weight f4 [32, 128]
000000 d7 07 7c bd f4 f1 aa bd 40 bb 3f bc 4f 9c d0 bd
       -0.061530914 -0.0834693 -0.011702359 -0.101860635
000010 ed 31 81 bd 3f b0 1c bd 2f 28 87 bd 15 8b 2f bc
       -0.06308351 -0.03825402 -0.06599461 -0.010714312
000020 9a 6c 3e 3c 9e 80 d9 bd a9 5b 34 bd 95 82 b7 3d
       0.011622572 -0.10620235 -0.044032726 0.089604534
000030 63 63 2c bd 1a 21 e9 bd 85 32 06 bd 98 3f 00 bd
       -0.04208697 -0.11383267 -0.032763023 -0.031310648
000040 d4 94 30 3d d8 bf 06 3d 0f 80 87 bd 77 94 85 bd
       0.043110684 0.0328978 -0.06616222 -0.06522458
000050 c7 c8 42 bd 4c dd 0e bd 93 99 14 3d 0f f4 0c be
       -0.047554757 -0.034879014 0.036279272 -0.13764976
000060 4c 07 09 3d 80 d8 bd 3d 97 03 bf bc 6a 5c 38 be
       0.033454224 0.0926981 -0.023317141 -0.18004003
000070 91 70 a7 bd 6d 32 c2 bd ca b5 67 bd 9c 3c 39 be
       -0.08175767 -0.09482274 -0.056569852 -0.18089527
000080 54 fd 8f 3d a1 4e 32 bc 7d e2 e8 bd 86 b6 0c bd
       0.070307404 -0.010883004 -0.11371324 -0.034353755
000090 02 fe 02 3c 5b 68 d0 bd d5 a2 c6 bd fc ef e4 bc
       0.0079951305 -0.10176154 -0.096990265 -0.027946465
0000a0 e0 64 8a 3d 1f 7c ba bd 53 94 43 3d 97 88 3f 3d
       0.06757522 -0.091057055 0.047748875 0.04676112
0000b0 95 50 92 bd 07 d1 f8 3c 43 f4 c1 bd 74 a2 2d 3c
       -0.07144276 0.03037311 -0.09470417 0.010597814
0000c0 c2 1b 55 3c c5 66 fb bc 02 f7 2f bc 12 32 c8 bd
       0.013007106 -0.030688653 -0.010740044 -0.09775175
0000d0 5a d4 d3 3b cd 9b a3 bd 8f 11 07 bd fe f3 ee 3c
       0.0064645233 -0.07988701 -0.03297573 0.029169079
0000e0 57 b8 60 bd cd 74 d1 bd ae 2c c4 bc 34 83 1d 3d
       -0.0548633 -0.10227356 -0.023947086 0.038455203
0000f0 3b a5 4f bd 87 fc b6 bd 7c 07 1b bd a9 9e cc 3c
       -0.050694685 -0.089348845 -0.037848935 0.024977999
000100 c3 7c 32 3d 33 ce 7b 3d 05 1c 14 bc e3 cd 39 bb
       0.043576013 0.061475944 -0.0090398835 -0.0028351478
000110 0f 1f f5 bd 8d 71 ab 39 ad da ac bd fd 42 2a 3d
       -0.119688146 0.00032700264 -0.084401466 0.04156779
000120 e7 fe 8e bc 17 ef c7 bc e6 5a db bd b7 63 0d 3d
       -0.017455531 -0.024406 -0.10710697 0.034518924
000130 6f 30 0f 3d 3d 63 90 3c e9 dc 07 bd 7e d6 af bd
       0.0349583 0.017625446 -0.03316966 -0.08585833
000140 a5 e0 5c bd bb 1f a8 bd 93 40 04 be 3d c0 8c bd
       -0.053925175 -0.08209177 -0.12915258 -0.06872604
000150 89 12 f8 bc 63 5d b4 3c 01 15 84 bd fc c7 ba bd
       -0.030282276 0.022017187 -0.06449319 -0.09120175
000160 62 23 ca bd 95 45 db bd 7e 86 66 bc 4c e1 44 3d
       -0.0987003 -0.10706631 -0.014070151 0.048066422
000170 15 96 06 3c 11 f4 2e bd 3b a0 af bd 1a 8d 3f 3d
       0.008214493 -0.04271323 -0.085754834 0.046765424
000180 a6 ef ad bd 15 bb b1 3c 3c ba fa bc de ba 7b bd
       -0.08492975 0.021695653 -0.030606382 -0.061457507
000190 28 77 a3 bd 7f 8b 97 bd 19 cd 41 bb cc 4c 8e bd
       -0.079817116 -0.07399654 -0.002957171 -0.069482416
0001a0 78 56 b3 bc db a4 11 bd 5f 54 d0 3c 3a 2d 4c bd
       -0.021891817 -0.03555761 0.025430856 -0.04984782
0001b0 0d c7 14 3d 18 45 78 bd d2 67 dd bc 45 7a 7d bd
       0.036322642 -0.060612768 -0.027027044 -0.061884183
0001c0 1d 4e 80 bd f2 79 a5 3c 7d 95 91 3c 39 6c b3 bd
       -0.06264899 0.02019975 0.017771477 -0.08760876
0001d0 45 22 3a bd 25 bd 89 3d 34 f0 a8 bd 8c 9e 02 3d
       -0.04544284 0.067255296 -0.0824894 0.031889483
0001e0 a6 04 0c bc 52 09 9a bd ac 06 b3 bc d5 f8 43 bd
       -0.00854603 -0.07521309 -0.021853767 -0.047844727
0001f0 7c d5 d8 3c 45 41 0c bd 1b 0e 50 3d 46 19 d6 bd
       0.026468985 -0.034241933 0.050794702 -0.10454039
000200 69 9a 00 3a d0 7e fc bd bf f7 89 bc b0 5e 2c be
       0.00049058214 -0.12328875 -0.016841767 -0.16832995
000210 2c e1 31 3f cc 7c ba 3d 8a b0 05 be 78 63 f3 bd
       0.6948421 0.09105834 -0.13055626 -0.118842065
000220 f3 c1 fa 3d ed 7d d7 3d 5d 28 cc be ab 7b 05 3d
       0.12244024 0.10522065 -0.39874545 0.032588642
000230 d8 0f 60 bc 3c d1 93 3c dd ed 07 be 3e 53 5d 3c
       -0.013675652 0.018044107 -0.13274331 0.013508616
000240 68 8d f2 3d b1 a5 6b be 32 d1 98 3d 69 5b b6 bd
       0.11843377 -0.23012425 0.07461776 -0.08904154
000250 3d bb c9 bc 6d 76 bf bd 4d 64 4d bd 00 f0 86 bd
       -0.024625415 -0.0934876 -0.050144482 -0.06588745
000260 e9 eb b8 3d 0f ee 10 3f 41 d4 1f be b0 04 91 be
       0.09029371 0.5661325 -0.15608312 -0.2832389
000270 e6 e8 09 be 8f 1e aa bc 5b 74 c1 bc a5 a9 c1 3d
       -0.1346775 -0.020766525 -0.023615053 0.09456185
000280 e1 ab c5 3d a3 37 71 3d 9a 5c d2 be 98 ac 75 3d
       0.09651924 0.05889095 -0.41086274 0.05997905
000290 c0 1b be bc 56 8e d7 bc 2c af af 3d 62 40 78 3e
       -0.023206592 -0.026312988 0.08578333 0.2424331
0002a0 a9 92 4f 3e 45 dd 6a 3c d3 4c cb 3c 66 39 05 3e
       0.2027079 0.014334981 0.024816906 0.13010177
0002b0 93 1f 77 3c 43 1b 7c be e1 df 16 be 9b ff 31 3e
       0.0150832115 -0.24619775 -0.1473384 0.17382662
0002c0 14 28 bc bd f7 8d 29 bf 32 9a 81 be 3d 82 f4 bd
       -0.09187332 -0.66232246 -0.25312954 -0.119389035
0002d0 6e 07 c6 3d 26 2b 19 3c 25 e6 89 3d fd 85 7c 3e
       0.09669386 0.009348666 0.0673335 0.24660487
0002e0 44 24 cb 3e e6 5c 0a bd 38 35 15 bf 05 a7 4e 3e
       0.39676106 -0.03378 -0.5828433 0.201809
0002f0 94 69 77 3e 09 cf 81 3d 08 8f 8a 3d 3a b8 26 be
       0.24161369 0.06338317 0.06765562 -0.16281214
000300 a7 29 23 be 79 14 9b 3e c7 06 2a 3e 09 b8 ca bd
       -0.15933858 0.30289057 0.16604148 -0.09898383
000310 76 23 bd bc 17 49 78 3c f5 fc 72 3b 91 00 11 be
       -0.023088198 0.015154145 0.0037077044 -0.14160372
000320 d2 0e 61 3f 2a 81 d5 bd 2d ae 0e 3e 9a 33 1a be
       0.8791324 -0.10425027 0.1393363 -0.15058747
000330 7b f5 24 bf ac 5f a4 3e d8 f8 9e 3e 71 ac be 3d
       -0.64437073 0.32104242 0.31049228 0.09310234
000340 67 d9 6f 3d 99 07 9a 3e 6d 7a 80 be 41 a2 08 be
       0.05855694 0.30083922 -0.25093403 -0.13343145
000350 98 30 35 3e 73 ac 88 3e 38 89 9d bd f4 44 46 be
       0.17694318 0.26694068 -0.07692188 -0.19362241
000360 2c 83 e2 3e af 17 8a 3d 87 4c 5f be c8 5d c2 be
       0.442407 0.067427985 -0.21806537 -0.37962174
000370 ad 9d e8 be b8 4c 3a bd 96 65 89 be 0d 2c 5d 3e
       -0.45432797 -0.04548332 -0.26835316 0.21598835
000380 85 b6 14 be b3 2c 0c 3e 7f d2 6f bd 2e 52 56 bd
       -0.1452275 0.13688926 -0.058550354 -0.052324466
000390 d2 b3 58 be 00 32 78 bd 67 8b 1f be 88 d0 1f be
       -0.21162346 -0.06059456 -0.15580522 -0.15606892
0003a0 96 74 29 3e 51 38 54 3e df 51 70 3e ff 38 e1 be
       0.1654838 0.20724608 0.23468731 -0.43988797
0003b0 7e b0 8c be 35 e5 b3 3e 8b d5 2f bd c5 ce 6d 3e
       -0.27478403 0.3513581 -0.04292826 0.23223408
0003c0 e3 f6 c5 3e 2a d2 78 3f 93 16 2c bd 04 65 df 3b
       0.38664922 0.97195685 -0.042013716 0.006817462
0003d0 23 2f 09 3e 85 1a 24 3e 31 83 18 3d 6a db 7c 3e
       0.13396887 0.16025741 0.03723449 0.24693075
0003e0 8e 35 60 be c2 28 28 bd 36 ed 17 bd 82 b4 0d 3e
       -0.2189543 -0.041054495 -0.037091456 0.1383839
0003f0 cc 74 8e 3e 8d f8 4d bd 22 75 99 bd 78 87 d4 3c
       0.27823484 -0.050285865 -0.074930444 0.025943503

fc2.bias f4 [32]
000000 80 f1 6a bd 4b 73 a9 be e8 13 07 bd 7c 68 a0 bd
       -0.05735922 -0.33095774 -0.03297797 -0.07832429
000010 7c cf 37 3d bf a8 f3 bd 3c 94 9c 3d 5b 0c d7 bd
       0.044875607 -0.1189742 0.07645461 -0.105004035
000020 8a f5 a9 bd 13 92 00 bf 64 da 45 bb bd cb 1c be
       -0.08298786 -0.5022289 -0.0030189985 -0.15312095
000030 fb 30 c8 3a 00 45 8b bd 58 d7 0f 3e 12 96 38 3d
       0.0015273386 -0.0680027 0.14046991 0.045064993
000040 59 83 29 bc 48 0b 28 be 1f 90 f7 bd 3f 7f 8d 3f
       -0.010346257 -0.16410553 -0.12088036 1.1054457
000050 34 ec a3 3e 0e 8d 8a bc 6f 7b 1a 3e 03 1d 03 bc
       0.32016146 -0.016912963 0.15086149 -0.008002522
000060 8a 2f 0c be fa bf f0 3c 84 64 3a be 17 ba 97 be
       -0.1369001 0.029388417 -0.18202406 -0.29634163
000070 01 89 24 3e 18 e3 f4 3e ba eb 93 3e ed 5e 96 bd
       0.16067888 0.4782951 0.28890783 -0.073423244

fc3.weight f4 [4, 32]
000000 bf 01 34 3e 2c c9 41 be 41 1f 11 bf d6 36 11 be
       0.17578791 -0.18924397 -0.56688315 -0.14181075
000010 80 e0 6a 3e eb 01 09 3e 4f c3 46 bf 8d 3a 09 3d
       0.22937202 0.13379638 -0.7764177 0.033503104
000020 99 f3 12 3e 6f 3c 5a be 75 13 39 3e f4 38 b8 3e
       0.14350738 -0.21312116 0.18073829 0.35980952
000030 13 c9 9e 3e b8 6e 01 3d 15 ed ac bc ca 27 ec be
       0.31012782 0.03159973 -0.021109143 -0.46124107
000040 be ee 30 3e 1b 1c 48 3d c0 9b 14 be 35 cd b3 3e
       0.17278573 0.04885493 -0.14512539 0.35117498
000050 62 b8 5c 3e a6 56 2b 3e c7 58 8e be 05 c4 dc bc
       0.21554711 0.16732273 -0.27802107 -0.026948938
000060 26 eb a8 bd 33 3d 08 3d f4 66 a5 3d 1f d5 ec be
       -0.08247976 0.03326149 0.080762774 -0.46256348
000070 4a ac 99 3e 2c 65 5a 3e 5d d0 0b 3e 55 25 14 3d
       0.3001426 0.21327657 0.13653703 0.036168415
000080 bb cd 16 be 31 60 99 be 15 9e 12 bf 32 e2 0d 3f
       -0.14726917 -0.299562 -0.57272464 0.5542327
000090 b2 f8 b9 3e 87 ea 7f 3e 2e 72 34 bc 3b d2 6d 3e
       0.36322552 0.24991809 -0.011013551 0.23224728
0000a0 c6 27 23 bd 2c 68 84 be a9 ff 14 3f a3 e1 d7 3e
       -0.039832853 -0.25860727 0.58202606 0.42164335
0000b0 65 8e 04 3e 59 d0 cc be 10 3f a5 3c 93 56 c7 3e
       0.12944944 -0.40002707 0.020171672 0.38933238
0000c0 bc ff 3f bd 00 d2 54 3f 7d a0 87 bd 8c aa b6 3e
       -0.046874747 0.83132935 -0.066224076 0.35676992
0000d0 de be 68 3e 73 de 8a 3e 80 e4 3f bd dc 8f 83 3f
       0.2272906 0.2712284 -0.046848774 1.0278277
0000e0 7a 7a 00 bd 48 c3 f2 bd 02 a8 83 be 2a f4 8e be
       -0.031366803 -0.11853653 -0.25714117 -0.27920657
0000f0 18 49 cf 3e 87 d7 22 3e 94 31 62 3e b6 68 b9 3d
       0.40485454 0.1590253 0.22089225 0.09053175
000100 f8 14 a6 3d e6 b3 e6 be 1b 9f be 3e 83 f8 32 3c
       0.08109468 -0.45059127 0.37230763 0.010923508
000110 22 f2 16 3e 56 9f d1 3e 89 8e 7f bd 22 22 2c be
       0.14740804 0.40941876 -0.06239179 -0.16809896
000120 60 90 c9 3d 41 ca 22 be 78 b6 2a be 79 c3 c2 3e
       0.098419905 -0.15897466 -0.16671169 0.3803976
000130 a4 87 1b bd 4e 77 1e bf 79 85 7c 3e d0 92 0e bd
       -0.037971154 -0.61900795 0.24660291 -0.03480798
000140 15 20 c2 3e 8c 20 0c 3e bc b0 7c 3d 13 72 bb 3e
       0.37915102 0.1368429 0.061691985 0.3661047
000150 75 57 fb 3d 16 e9 f2 3e 69 0a 00 3d 17 8c ad 3e
       0.122725405 0.47443455 0.031259928 0.33895943
000160 37 7c bf bd 1a ee 08 bf 1b 0c 85 bd 83 bb 17 be
       -0.09349864 -0.53488314 -0.064964496 -0.14817624
000170 fd c9 d2 3e 71 28 2e 3e f5 d9 8e 3d b6 e9 cf 3d
       0.4116973 0.17007615 0.06975166 0.10151999
000180 56 05 03 bc 72 38 9c bd 82 fd 85 3e 4d cb 34 3f
       -0.007996878 -0.076279536 0.26169974 0.7062271
000190 7a 35 8a 3e 4b 26 16 be 97 b3 b5 be 57 49 8d 3e
       0.26993924 -0.14663045 -0.3548858 0.27595016
0001a0 f1 a6 07 3e d2 cc 05 bf 88 91 ba 3e 59 a3 83 be
       0.13247277 -0.52265656 0.36439157 -0.25710562
0001b0 e7 ec d5 3e af db 61 be ea 7c 00 3e 1a c8 0e bf
       0.41782305 -0.22056459 0.12547651 -0.5577408
0001c0 16 15 91 3e b7 e0 79 3e 7c 6b e5 3b 99 c9 bb 3e
       0.283364 0.24402128 0.0070013385 0.36677244
0001d0 ae 0c 7c 3c 0b 65 e0 3d 07 61 57 bb 2e 32 08 bd
       0.015383882 0.109567724 -0.003286423 -0.03325098
0001e0 03 e4 75 3e c5 a7 12 bf 77 a5 b9 3e da fd 63 3e
       0.24012761 -0.57287246 0.36259052 0.22264805
0001f0 14 66 96 3d c5 1a c8 3d 9e 05 e4 3e 30 da b9 bd
       0.073436886 0.09770731 0.44535536 -0.09074819

fc3.bias f4 [4]
000000 75 25 6b 3f e7 2a 3a 3f bc 6d 31 3f 9e ce 38 3f
       0.9185403 0.72721714 0.69308066 0.7219027
